…
I0111 15:39:07.692687 17248 net.cpp:253] The NetState phase (0) differed from the phase (1) specified by a rule in layer cifar
I0111 15:39:07.692715 17248 net.cpp:253] The NetState phase (0) differed from the phase (1) specified by a rule in layer accuracy
I0111 15:39:07.692793 17248 net.cpp:42] Initializing net from parameters: 
name: "CIFAR10_quick"
state {
  phase: TRAIN
}
layer {
  name: "cifar"
  type: "Data"
  top: "data"
  top: "label"
  include {
    phase: TRAIN
  }
  transform_param {
    mean_file: "net/mean.binaryproto"
  }
  data_param {
    source: "net/train-db"
    batch_size: 150
    backend: LMDB
  }
}
layer {
  name: "conv1"
  type: "Convolution"
  bottom: "data"
  top: "conv1"
  convolution_param {
    num_output: 32
    pad: 1
    kernel_size: 3
    stride: 1
    weight_filler {
      type: "gaussian"
      std: 0.0001
    }
    bias_filler {
      type: "constant"
    }
  }
}
layer {
  name: "relu1"
  type: "ReLU"
  bottom: "conv1"
  top: "relu1"
}
layer {
  name: "pool1"
  type: "Pooling"
  bottom: "relu1"
  top: "pool1"
  pooling_param {
    pool: MAX
    kernel_size: 2
    stride: 1
  }
}
layer {
  name: "conv3"
  type: "Convolution"
  bottom: "pool1"
  top: "conv3"
  convolution_param {
    num_output: 64
    pad: 1
    kernel_size: 3
    stride: 1
    weight_filler {
      type: "gaussian"
      std: 0.0001
    }
    bias_filler {
      type: "constant"
    }
  }
}
layer {
  name: "relu3"
  type: "ReLU"
  bottom: "conv3"
  top: "relu3"
}
layer {
  name: "ip1"
  type: "InnerProduct"
  bottom: "relu3"
  top: "ip1"
  inner_product_param {
    num_output: 64
    weight_filler {
      type: "gaussian"
      std: 0.1
    }
    bias_filler {
      type: "constant"
    }
  }
}
layer {
  name: "relu4"
  type: "ReLU"
  bottom: "ip1"
  top: "relu4"
}
layer {
  name: "ip2"
  type: "InnerProduct"
  bottom: "relu4"
  top: "ip2"
  inner_product_param {
    num_output: 32
    weight_filler {
      type: "gaussian"
      std: 0.1
    }
    bias_filler {
      type: "constant"
    }
  }
}
layer {
  name: "relu5"
  type: "ReLU"
  bottom: "ip2"
  top: "relu5"
}
layer {
  name: "ip3"
  type: "InnerProduct"
  bottom: "relu5"
  top: "ip3"
  inner_product_param {
    num_output: 10
    weight_filler {
      type: "gaussian"
      std: 0.1
    }
    bias_filler {
      type: "constant"
    }
  }
}
layer {
  name: "loss"
  type: "SoftmaxWithLoss"
  bottom: "ip3"
  bottom: "label"
  top: "loss"
}
I0111 15:39:07.692869 17248 layer_factory.hpp:74] Creating layer cifar
I0111 15:39:07.692891 17248 net.cpp:76] Creating Layer cifar
I0111 15:39:07.692899 17248 net.cpp:334] cifar -> data
I0111 15:39:07.692920 17248 net.cpp:334] cifar -> label
I0111 15:39:07.692932 17248 net.cpp:105] Setting up cifar
I0111 15:39:07.692986 17248 db.cpp:34] Opened lmdb net/train-db
I0111 15:39:07.693019 17248 data_layer.cpp:67] output data size: 150,3,32,32
I0111 15:39:07.693028 17248 data_transformer.cpp:22] Loading mean file from: net/mean.binaryproto
I0111 15:39:07.693542 17248 net.cpp:112] Top shape: 150 3 32 32 (460800)
I0111 15:39:07.693549 17248 net.cpp:112] Top shape: 150 1 1 1 (150)
I0111 15:39:07.693557 17248 layer_factory.hpp:74] Creating layer conv1
I0111 15:39:07.693567 17248 net.cpp:76] Creating Layer conv1
I0111 15:39:07.693572 17248 net.cpp:372] conv1 <- data
I0111 15:39:07.693585 17248 net.cpp:334] conv1 -> conv1
I0111 15:39:07.693593 17248 net.cpp:105] Setting up conv1
I0111 15:39:07.693961 17248 net.cpp:112] Top shape: 150 32 32 32 (4915200)
I0111 15:39:07.693976 17248 layer_factory.hpp:74] Creating layer relu1
I0111 15:39:07.693982 17248 net.cpp:76] Creating Layer relu1
I0111 15:39:07.693995 17248 net.cpp:372] relu1 <- conv1
I0111 15:39:07.694000 17248 net.cpp:334] relu1 -> relu1
I0111 15:39:07.694008 17248 net.cpp:105] Setting up relu1
I0111 15:39:07.694018 17248 net.cpp:112] Top shape: 150 32 32 32 (4915200)
I0111 15:39:07.694023 17248 layer_factory.hpp:74] Creating layer pool1
I0111 15:39:07.694031 17248 net.cpp:76] Creating Layer pool1
I0111 15:39:07.694036 17248 net.cpp:372] pool1 <- relu1
I0111 15:39:07.694044 17248 net.cpp:334] pool1 -> pool1
I0111 15:39:07.694054 17248 net.cpp:105] Setting up pool1
I0111 15:39:07.694070 17248 net.cpp:112] Top shape: 150 32 31 31 (4612800)
I0111 15:39:07.694075 17248 layer_factory.hpp:74] Creating layer conv3
I0111 15:39:07.694083 17248 net.cpp:76] Creating Layer conv3
I0111 15:39:07.694087 17248 net.cpp:372] conv3 <- pool1
I0111 15:39:07.694095 17248 net.cpp:334] conv3 -> conv3
I0111 15:39:07.694104 17248 net.cpp:105] Setting up conv3
I0111 15:39:07.694558 17248 net.cpp:112] Top shape: 150 64 31 31 (9225600)
I0111 15:39:07.694566 17248 layer_factory.hpp:74] Creating layer relu3
I0111 15:39:07.694569 17248 net.cpp:76] Creating Layer relu3
I0111 15:39:07.694572 17248 net.cpp:372] relu3 <- conv3
I0111 15:39:07.694576 17248 net.cpp:334] relu3 -> relu3
I0111 15:39:07.694581 17248 net.cpp:105] Setting up relu3
I0111 15:39:07.694583 17248 net.cpp:112] Top shape: 150 64 31 31 (9225600)
I0111 15:39:07.694586 17248 layer_factory.hpp:74] Creating layer ip1
I0111 15:39:07.694589 17248 net.cpp:76] Creating Layer ip1
I0111 15:39:07.694594 17248 net.cpp:372] ip1 <- relu3
I0111 15:39:07.694604 17248 net.cpp:334] ip1 -> ip1
I0111 15:39:07.694613 17248 net.cpp:105] Setting up ip1
I0111 15:39:07.788488 17248 net.cpp:112] Top shape: 150 64 1 1 (9600)
I0111 15:39:07.788513 17248 layer_factory.hpp:74] Creating layer relu4
I0111 15:39:07.788533 17248 net.cpp:76] Creating Layer relu4
I0111 15:39:07.788537 17248 net.cpp:372] relu4 <- ip1
I0111 15:39:07.788543 17248 net.cpp:334] relu4 -> relu4
I0111 15:39:07.788553 17248 net.cpp:105] Setting up relu4
I0111 15:39:07.788560 17248 net.cpp:112] Top shape: 150 64 1 1 (9600)
I0111 15:39:07.788565 17248 layer_factory.hpp:74] Creating layer ip2
I0111 15:39:07.788580 17248 net.cpp:76] Creating Layer ip2
I0111 15:39:07.788584 17248 net.cpp:372] ip2 <- relu4
I0111 15:39:07.788589 17248 net.cpp:334] ip2 -> ip2
I0111 15:39:07.788594 17248 net.cpp:105] Setting up ip2
I0111 15:39:07.788655 17248 net.cpp:112] Top shape: 150 32 1 1 (4800)
I0111 15:39:07.788661 17248 layer_factory.hpp:74] Creating layer relu5
I0111 15:39:07.788664 17248 net.cpp:76] Creating Layer relu5
I0111 15:39:07.788666 17248 net.cpp:372] relu5 <- ip2
I0111 15:39:07.788671 17248 net.cpp:334] relu5 -> relu5
I0111 15:39:07.788674 17248 net.cpp:105] Setting up relu5
I0111 15:39:07.788677 17248 net.cpp:112] Top shape: 150 32 1 1 (4800)
I0111 15:39:07.788679 17248 layer_factory.hpp:74] Creating layer ip3
I0111 15:39:07.788684 17248 net.cpp:76] Creating Layer ip3
I0111 15:39:07.788689 17248 net.cpp:372] ip3 <- relu5
I0111 15:39:07.788697 17248 net.cpp:334] ip3 -> ip3
I0111 15:39:07.788702 17248 net.cpp:105] Setting up ip3
I0111 15:39:07.788717 17248 net.cpp:112] Top shape: 150 10 1 1 (1500)
I0111 15:39:07.788722 17248 layer_factory.hpp:74] Creating layer loss
I0111 15:39:07.788727 17248 net.cpp:76] Creating Layer loss
I0111 15:39:07.788732 17248 net.cpp:372] loss <- ip3
I0111 15:39:07.788736 17248 net.cpp:372] loss <- label
I0111 15:39:07.788744 17248 net.cpp:334] loss -> loss
I0111 15:39:07.788749 17248 net.cpp:105] Setting up loss
I0111 15:39:07.788760 17248 layer_factory.hpp:74] Creating layer loss
I0111 15:39:07.788774 17248 net.cpp:112] Top shape: 1 1 1 1 (1)
I0111 15:39:07.788779 17248 net.cpp:118]     with loss weight 1
I0111 15:39:07.788792 17248 net.cpp:163] loss needs backward computation.
I0111 15:39:07.788796 17248 net.cpp:163] ip3 needs backward computation.
I0111 15:39:07.788800 17248 net.cpp:163] relu5 needs backward computation.
I0111 15:39:07.788803 17248 net.cpp:163] ip2 needs backward computation.
I0111 15:39:07.788806 17248 net.cpp:163] relu4 needs backward computation.
…
I0111 15:39:07.789176 17248 solver.cpp:154] Creating test net (#0) specified by net file: net/architecture.prototxt
I0111 15:39:07.789201 17248 net.cpp:253] The NetState phase (1) differed from the phase (0) specified by a rule in layer cifar
I0111 15:39:07.789284 17248 net.cpp:42] Initializing net from parameters: 
name: "CIFAR10_quick"
state {
  phase: TEST
}
layer {
  name: "cifar"
  type: "Data"
  top: "data"
  top: "label"
  include {
    phase: TEST
  }
  transform_param {
    mean_file: "net/mean.binaryproto"
  }
  data_param {
    source: "net/test-db"
    batch_size: 150
    backend: LMDB
  }
}
layer {
  name: "conv1"
  type: "Convolution"
  bottom: "data"
  top: "conv1"
  convolution_param {
    num_output: 32
    pad: 1
    kernel_size: 3
    stride: 1
    weight_filler {
      type: "gaussian"
      std: 0.0001
    }
    bias_filler {
      type: "constant"
    }
  }
}
layer {
  name: "relu1"
  type: "ReLU"
  bottom: "conv1"
  top: "relu1"
}
layer {
  name: "pool1"
  type: "Pooling"
  bottom: "relu1"
  top: "pool1"
  pooling_param {
    pool: MAX
    kernel_size: 2
    stride: 1
  }
}
layer {
  name: "conv3"
  type: "Convolution"
  bottom: "pool1"
  top: "conv3"
  convolution_param {
    num_output: 64
    pad: 1
    kernel_size: 3
    stride: 1
    weight_filler {
      type: "gaussian"
      std: 0.0001
    }
    bias_filler {
      type: "constant"
    }
  }
}
layer {
  name: "relu3"
  type: "ReLU"
  bottom: "conv3"
  top: "relu3"
}
layer {
  name: "ip1"
  type: "InnerProduct"
  bottom: "relu3"
  top: "ip1"
  inner_product_param {
    num_output: 64
    weight_filler {
      type: "gaussian"
      std: 0.1
    }
    bias_filler {
      type: "constant"
    }
  }
}
layer {
  name: "relu4"
  type: "ReLU"
  bottom: "ip1"
  top: "relu4"
}
layer {
  name: "ip2"
  type: "InnerProduct"
  bottom: "relu4"
  top: "ip2"
  inner_product_param {
    num_output: 32
    weight_filler {
      type: "gaussian"
      std: 0.1
    }
    bias_filler {
      type: "constant"
    }
  }
}
layer {
  name: "relu5"
  type: "ReLU"
  bottom: "ip2"
  top: "relu5"
}
layer {
  name: "ip3"
  type: "InnerProduct"
  bottom: "relu5"
  top: "ip3"
  inner_product_param {
    num_output: 10
    weight_filler {
      type: "gaussian"
      std: 0.1
    }
    bias_filler {
      type: "constant"
    }
  }
}
layer {
  name: "accuracy"
  type: "Accuracy"
  bottom: "ip3"
  bottom: "label"
  top: "accuracy"
  include {
    phase: TEST
  }
}
layer {
  name: "loss"
  type: "SoftmaxWithLoss"
  bottom: "ip3"
  bottom: "label"
  top: "loss"
}
I0111 15:39:07.789345 17248 layer_factory.hpp:74] Creating layer cifar
I0111 15:39:07.789350 17248 net.cpp:76] Creating Layer cifar
I0111 15:39:07.789355 17248 net.cpp:334] cifar -> data
I0111 15:39:07.789361 17248 net.cpp:334] cifar -> label
I0111 15:39:07.789365 17248 net.cpp:105] Setting up cifar
I0111 15:39:07.789399 17248 db.cpp:34] Opened lmdb net/test-db
I0111 15:39:07.789414 17248 data_layer.cpp:67] output data size: 150,3,32,32
I0111 15:39:07.789419 17248 data_transformer.cpp:22] Loading mean file from: net/mean.binaryproto
I0111 15:39:07.789924 17248 net.cpp:112] Top shape: 150 3 32 32 (460800)
I0111 15:39:07.789930 17248 net.cpp:112] Top shape: 150 1 1 1 (150)
I0111 15:39:07.789940 17248 layer_factory.hpp:74] Creating layer label_cifar_1_split
I0111 15:39:07.789945 17248 net.cpp:76] Creating Layer label_cifar_1_split
I0111 15:39:07.789948 17248 net.cpp:372] label_cifar_1_split <- label
I0111 15:39:07.789952 17248 net.cpp:334] label_cifar_1_split -> label_cifar_1_split_0
I0111 15:39:07.789958 17248 net.cpp:334] label_cifar_1_split -> label_cifar_1_split_1
I0111 15:39:07.789965 17248 net.cpp:105] Setting up label_cifar_1_split
I0111 15:39:07.789969 17248 net.cpp:112] Top shape: 150 1 1 1 (150)
I0111 15:39:07.789971 17248 net.cpp:112] Top shape: 150 1 1 1 (150)
I0111 15:39:07.789973 17248 layer_factory.hpp:74] Creating layer conv1
I0111 15:39:07.789983 17248 net.cpp:76] Creating Layer conv1
I0111 15:39:07.789985 17248 net.cpp:372] conv1 <- data
I0111 15:39:07.789989 17248 net.cpp:334] conv1 -> conv1
I0111 15:39:07.789995 17248 net.cpp:105] Setting up conv1
I0111 15:39:07.790036 17248 net.cpp:112] Top shape: 150 32 32 32 (4915200)
I0111 15:39:07.790045 17248 layer_factory.hpp:74] Creating layer relu1
I0111 15:39:07.790048 17248 net.cpp:76] Creating Layer relu1
I0111 15:39:07.790051 17248 net.cpp:372] relu1 <- conv1
I0111 15:39:07.790056 17248 net.cpp:334] relu1 -> relu1
I0111 15:39:07.790061 17248 net.cpp:105] Setting up relu1
I0111 15:39:07.790065 17248 net.cpp:112] Top shape: 150 32 32 32 (4915200)
I0111 15:39:07.790066 17248 layer_factory.hpp:74] Creating layer pool1
I0111 15:39:07.790074 17248 net.cpp:76] Creating Layer pool1
I0111 15:39:07.790077 17248 net.cpp:372] pool1 <- relu1
I0111 15:39:07.790081 17248 net.cpp:334] pool1 -> pool1
I0111 15:39:07.790086 17248 net.cpp:105] Setting up pool1
I0111 15:39:07.790091 17248 net.cpp:112] Top shape: 150 32 31 31 (4612800)
I0111 15:39:07.790093 17248 layer_factory.hpp:74] Creating layer conv3
I0111 15:39:07.790099 17248 net.cpp:76] Creating Layer conv3
I0111 15:39:07.790102 17248 net.cpp:372] conv3 <- pool1
I0111 15:39:07.790105 17248 net.cpp:334] conv3 -> conv3
I0111 15:39:07.790109 17248 net.cpp:105] Setting up conv3
I0111 15:39:07.790565 17248 net.cpp:112] Top shape: 150 64 31 31 (9225600)
I0111 15:39:07.790573 17248 layer_factory.hpp:74] Creating layer relu3
I0111 15:39:07.790576 17248 net.cpp:76] Creating Layer relu3
I0111 15:39:07.790578 17248 net.cpp:372] relu3 <- conv3
I0111 15:39:07.790583 17248 net.cpp:334] relu3 -> relu3
I0111 15:39:07.790590 17248 net.cpp:105] Setting up relu3
I0111 15:39:07.790592 17248 net.cpp:112] Top shape: 150 64 31 31 (9225600)
I0111 15:39:07.790596 17248 layer_factory.hpp:74] Creating layer ip1
I0111 15:39:07.790601 17248 net.cpp:76] Creating Layer ip1
I0111 15:39:07.790603 17248 net.cpp:372] ip1 <- relu3
I0111 15:39:07.790607 17248 net.cpp:334] ip1 -> ip1
I0111 15:39:07.790612 17248 net.cpp:105] Setting up ip1
I0111 15:39:07.883744 17248 net.cpp:112] Top shape: 150 64 1 1 (9600)
I0111 15:39:07.883767 17248 layer_factory.hpp:74] Creating layer relu4
I0111 15:39:07.883777 17248 net.cpp:76] Creating Layer relu4
I0111 15:39:07.883781 17248 net.cpp:372] relu4 <- ip1
I0111 15:39:07.883787 17248 net.cpp:334] relu4 -> relu4
I0111 15:39:07.883793 17248 net.cpp:105] Setting up relu4
I0111 15:39:07.883797 17248 net.cpp:112] Top shape: 150 64 1 1 (9600)
I0111 15:39:07.883800 17248 layer_factory.hpp:74] Creating layer ip2
I0111 15:39:07.883805 17248 net.cpp:76] Creating Layer ip2
I0111 15:39:07.883807 17248 net.cpp:372] ip2 <- relu4
I0111 15:39:07.883812 17248 net.cpp:334] ip2 -> ip2
I0111 15:39:07.883818 17248 net.cpp:105] Setting up ip2
I0111 15:39:07.883889 17248 net.cpp:112] Top shape: 150 32 1 1 (4800)
I0111 15:39:07.883896 17248 layer_factory.hpp:74] Creating layer relu5
I0111 15:39:07.883900 17248 net.cpp:76] Creating Layer relu5
I0111 15:39:07.883903 17248 net.cpp:372] relu5 <- ip2
I0111 15:39:07.883905 17248 net.cpp:334] relu5 -> relu5
I0111 15:39:07.883909 17248 net.cpp:105] Setting up relu5
I0111 15:39:07.883911 17248 net.cpp:112] Top shape: 150 32 1 1 (4800)
I0111 15:39:07.883913 17248 layer_factory.hpp:74] Creating layer ip3
I0111 15:39:07.883919 17248 net.cpp:76] Creating Layer ip3
I0111 15:39:07.883920 17248 net.cpp:372] ip3 <- relu5
I0111 15:39:07.883936 17248 net.cpp:334] ip3 -> ip3
I0111 15:39:07.883944 17248 net.cpp:105] Setting up ip3
I0111 15:39:07.883958 17248 net.cpp:112] Top shape: 150 10 1 1 (1500)
I0111 15:39:07.883967 17248 layer_factory.hpp:74] Creating layer ip3_ip3_0_split
I0111 15:39:07.883973 17248 net.cpp:76] Creating Layer ip3_ip3_0_split
I0111 15:39:07.883975 17248 net.cpp:372] ip3_ip3_0_split <- ip3
I0111 15:39:07.883980 17248 net.cpp:334] ip3_ip3_0_split -> ip3_ip3_0_split_0
I0111 15:39:07.883986 17248 net.cpp:334] ip3_ip3_0_split -> ip3_ip3_0_split_1
I0111 15:39:07.883991 17248 net.cpp:105] Setting up ip3_ip3_0_split
I0111 15:39:07.883994 17248 net.cpp:112] Top shape: 150 10 1 1 (1500)
I0111 15:39:07.883996 17248 net.cpp:112] Top shape: 150 10 1 1 (1500)
I0111 15:39:07.883999 17248 layer_factory.hpp:74] Creating layer accuracy
I0111 15:39:07.884011 17248 net.cpp:76] Creating Layer accuracy
I0111 15:39:07.884012 17248 net.cpp:372] accuracy <- ip3_ip3_0_split_0
I0111 15:39:07.884016 17248 net.cpp:372] accuracy <- label_cifar_1_split_0
I0111 15:39:07.884021 17248 net.cpp:334] accuracy -> accuracy
I0111 15:39:07.884027 17248 net.cpp:105] Setting up accuracy
I0111 15:39:07.884030 17248 net.cpp:112] Top shape: 1 1 1 1 (1)
I0111 15:39:07.884034 17248 layer_factory.hpp:74] Creating layer loss
I0111 15:39:07.884040 17248 net.cpp:76] Creating Layer loss
I0111 15:39:07.884042 17248 net.cpp:372] loss <- ip3_ip3_0_split_1
I0111 15:39:07.884047 17248 net.cpp:372] loss <- label_cifar_1_split_1
I0111 15:39:07.884052 17248 net.cpp:334] loss -> loss
I0111 15:39:07.884055 17248 net.cpp:105] Setting up loss
I0111 15:39:07.884062 17248 layer_factory.hpp:74] Creating layer loss
I0111 15:39:07.884073 17248 net.cpp:112] Top shape: 1 1 1 1 (1)
I0111 15:39:07.884076 17248 net.cpp:118]     with loss weight 1
I0111 15:39:07.884088 17248 net.cpp:163] loss needs backward computation.
I0111 15:39:07.884091 17248 net.cpp:165] accuracy does not need backward computation.
I0111 15:39:07.884094 17248 net.cpp:163] ip3_ip3_0_split needs backward computation.
I0111 15:39:07.884096 17248 net.cpp:163] ip3 needs backward computation.
I0111 15:39:07.884099 17248 net.cpp:163] relu5 needs backward computation.
…
