…
I0111 13:39:34.972911 20026 net.cpp:253] The NetState phase (0) differed from the phase (1) specified by a rule in layer cifar
I0111 13:39:34.972925 20026 net.cpp:253] The NetState phase (0) differed from the phase (1) specified by a rule in layer accuracy
I0111 13:39:34.972991 20026 net.cpp:42] Initializing net from parameters: 
name: "CIFAR10_quick"
state {
  phase: TRAIN
}
layer {
  name: "cifar"
  type: "Data"
  top: "data"
  top: "label"
  include {
    phase: TRAIN
  }
  transform_param {
    mean_file: "net/mean.binaryproto"
  }
  data_param {
    source: "net/train-db"
    batch_size: 100
    backend: LMDB
  }
}
layer {
  name: "conv1"
  type: "Convolution"
  bottom: "data"
  top: "conv1"
  convolution_param {
    num_output: 32
    pad: 1
    kernel_size: 3
    stride: 1
    weight_filler {
      type: "gaussian"
      std: 0.0001
    }
    bias_filler {
      type: "constant"
    }
  }
}
layer {
  name: "relu1"
  type: "ReLU"
  bottom: "conv1"
  top: "relu1"
}
layer {
  name: "pool1"
  type: "Pooling"
  bottom: "relu1"
  top: "pool1"
  pooling_param {
    pool: MAX
    kernel_size: 2
    stride: 1
  }
}
layer {
  name: "conv3"
  type: "Convolution"
  bottom: "pool1"
  top: "conv3"
  convolution_param {
    num_output: 64
    pad: 1
    kernel_size: 3
    stride: 1
    weight_filler {
      type: "gaussian"
      std: 0.0001
    }
    bias_filler {
      type: "constant"
    }
  }
}
layer {
  name: "relu3"
  type: "ReLU"
  bottom: "conv3"
  top: "relu3"
}
layer {
  name: "ip1"
  type: "InnerProduct"
  bottom: "relu3"
  top: "ip1"
  inner_product_param {
    num_output: 64
    weight_filler {
      type: "gaussian"
      std: 0.1
    }
    bias_filler {
      type: "constant"
    }
  }
}
layer {
  name: "relu4"
  type: "ReLU"
  bottom: "ip1"
  top: "relu4"
}
layer {
  name: "ip2"
  type: "InnerProduct"
  bottom: "relu4"
  top: "ip2"
  inner_product_param {
    num_output: 32
    weight_filler {
      type: "gaussian"
      std: 0.1
    }
    bias_filler {
      type: "constant"
    }
  }
}
layer {
  name: "relu5"
  type: "ReLU"
  bottom: "ip2"
  top: "relu5"
}
layer {
  name: "ip3"
  type: "InnerProduct"
  bottom: "relu5"
  top: "ip3"
  inner_product_param {
    num_output: 10
    weight_filler {
      type: "gaussian"
      std: 0.1
    }
    bias_filler {
      type: "constant"
    }
  }
}
layer {
  name: "loss"
  type: "SoftmaxWithLoss"
  bottom: "ip3"
  bottom: "label"
  top: "loss"
}
I0111 13:39:34.973047 20026 layer_factory.hpp:74] Creating layer cifar
I0111 13:39:34.973067 20026 net.cpp:76] Creating Layer cifar
I0111 13:39:34.973072 20026 net.cpp:334] cifar -> data
I0111 13:39:34.973090 20026 net.cpp:334] cifar -> label
I0111 13:39:34.973098 20026 net.cpp:105] Setting up cifar
I0111 13:39:34.973150 20026 db.cpp:34] Opened lmdb net/train-db
I0111 13:39:34.973176 20026 data_layer.cpp:67] output data size: 100,3,32,32
I0111 13:39:34.973183 20026 data_transformer.cpp:22] Loading mean file from: net/mean.binaryproto
I0111 13:39:34.973534 20026 net.cpp:112] Top shape: 100 3 32 32 (307200)
I0111 13:39:34.973541 20026 net.cpp:112] Top shape: 100 1 1 1 (100)
I0111 13:39:34.973546 20026 layer_factory.hpp:74] Creating layer conv1
I0111 13:39:34.973551 20026 net.cpp:76] Creating Layer conv1
I0111 13:39:34.973554 20026 net.cpp:372] conv1 <- data
I0111 13:39:34.973562 20026 net.cpp:334] conv1 -> conv1
I0111 13:39:34.973570 20026 net.cpp:105] Setting up conv1
I0111 13:39:34.973958 20026 net.cpp:112] Top shape: 100 32 32 32 (3276800)
I0111 13:39:34.973973 20026 layer_factory.hpp:74] Creating layer relu1
I0111 13:39:34.973978 20026 net.cpp:76] Creating Layer relu1
I0111 13:39:34.973992 20026 net.cpp:372] relu1 <- conv1
I0111 13:39:34.974000 20026 net.cpp:334] relu1 -> relu1
I0111 13:39:34.974009 20026 net.cpp:105] Setting up relu1
I0111 13:39:34.974015 20026 net.cpp:112] Top shape: 100 32 32 32 (3276800)
I0111 13:39:34.974020 20026 layer_factory.hpp:74] Creating layer pool1
I0111 13:39:34.974025 20026 net.cpp:76] Creating Layer pool1
I0111 13:39:34.974030 20026 net.cpp:372] pool1 <- relu1
I0111 13:39:34.974035 20026 net.cpp:334] pool1 -> pool1
I0111 13:39:34.974046 20026 net.cpp:105] Setting up pool1
I0111 13:39:34.974056 20026 net.cpp:112] Top shape: 100 32 31 31 (3075200)
I0111 13:39:34.974059 20026 layer_factory.hpp:74] Creating layer conv3
I0111 13:39:34.974066 20026 net.cpp:76] Creating Layer conv3
I0111 13:39:34.974067 20026 net.cpp:372] conv3 <- pool1
I0111 13:39:34.974072 20026 net.cpp:334] conv3 -> conv3
I0111 13:39:34.974076 20026 net.cpp:105] Setting up conv3
I0111 13:39:34.974531 20026 net.cpp:112] Top shape: 100 64 31 31 (6150400)
I0111 13:39:34.974539 20026 layer_factory.hpp:74] Creating layer relu3
I0111 13:39:34.974542 20026 net.cpp:76] Creating Layer relu3
I0111 13:39:34.974545 20026 net.cpp:372] relu3 <- conv3
I0111 13:39:34.974547 20026 net.cpp:334] relu3 -> relu3
I0111 13:39:34.974551 20026 net.cpp:105] Setting up relu3
I0111 13:39:34.974553 20026 net.cpp:112] Top shape: 100 64 31 31 (6150400)
I0111 13:39:34.974555 20026 layer_factory.hpp:74] Creating layer ip1
I0111 13:39:34.974560 20026 net.cpp:76] Creating Layer ip1
I0111 13:39:34.974563 20026 net.cpp:372] ip1 <- relu3
I0111 13:39:34.974566 20026 net.cpp:334] ip1 -> ip1
I0111 13:39:34.974572 20026 net.cpp:105] Setting up ip1
I0111 13:39:35.071523 20026 net.cpp:112] Top shape: 100 64 1 1 (6400)
I0111 13:39:35.071552 20026 layer_factory.hpp:74] Creating layer relu4
I0111 13:39:35.071560 20026 net.cpp:76] Creating Layer relu4
I0111 13:39:35.071563 20026 net.cpp:372] relu4 <- ip1
I0111 13:39:35.071579 20026 net.cpp:334] relu4 -> relu4
I0111 13:39:35.071589 20026 net.cpp:105] Setting up relu4
I0111 13:39:35.071594 20026 net.cpp:112] Top shape: 100 64 1 1 (6400)
I0111 13:39:35.071598 20026 layer_factory.hpp:74] Creating layer ip2
I0111 13:39:35.071605 20026 net.cpp:76] Creating Layer ip2
I0111 13:39:35.071609 20026 net.cpp:372] ip2 <- relu4
I0111 13:39:35.071612 20026 net.cpp:334] ip2 -> ip2
I0111 13:39:35.071617 20026 net.cpp:105] Setting up ip2
I0111 13:39:35.071676 20026 net.cpp:112] Top shape: 100 32 1 1 (3200)
I0111 13:39:35.071681 20026 layer_factory.hpp:74] Creating layer relu5
I0111 13:39:35.071686 20026 net.cpp:76] Creating Layer relu5
I0111 13:39:35.071688 20026 net.cpp:372] relu5 <- ip2
I0111 13:39:35.071691 20026 net.cpp:334] relu5 -> relu5
I0111 13:39:35.071696 20026 net.cpp:105] Setting up relu5
I0111 13:39:35.071698 20026 net.cpp:112] Top shape: 100 32 1 1 (3200)
I0111 13:39:35.071701 20026 layer_factory.hpp:74] Creating layer ip3
I0111 13:39:35.071705 20026 net.cpp:76] Creating Layer ip3
I0111 13:39:35.071707 20026 net.cpp:372] ip3 <- relu5
I0111 13:39:35.071710 20026 net.cpp:334] ip3 -> ip3
I0111 13:39:35.071714 20026 net.cpp:105] Setting up ip3
I0111 13:39:35.071727 20026 net.cpp:112] Top shape: 100 10 1 1 (1000)
I0111 13:39:35.071735 20026 layer_factory.hpp:74] Creating layer loss
I0111 13:39:35.071739 20026 net.cpp:76] Creating Layer loss
I0111 13:39:35.071741 20026 net.cpp:372] loss <- ip3
I0111 13:39:35.071744 20026 net.cpp:372] loss <- label
I0111 13:39:35.071749 20026 net.cpp:334] loss -> loss
I0111 13:39:35.071753 20026 net.cpp:105] Setting up loss
I0111 13:39:35.071763 20026 layer_factory.hpp:74] Creating layer loss
I0111 13:39:35.071779 20026 net.cpp:112] Top shape: 1 1 1 1 (1)
I0111 13:39:35.071781 20026 net.cpp:118]     with loss weight 1
I0111 13:39:35.071797 20026 net.cpp:163] loss needs backward computation.
I0111 13:39:35.071800 20026 net.cpp:163] ip3 needs backward computation.
I0111 13:39:35.071802 20026 net.cpp:163] relu5 needs backward computation.
I0111 13:39:35.071805 20026 net.cpp:163] ip2 needs backward computation.
I0111 13:39:35.071806 20026 net.cpp:163] relu4 needs backward computation.
…
I0111 13:39:35.072139 20026 solver.cpp:154] Creating test net (#0) specified by net file: net/architecture.prototxt
I0111 13:39:35.072161 20026 net.cpp:253] The NetState phase (1) differed from the phase (0) specified by a rule in layer cifar
I0111 13:39:35.072237 20026 net.cpp:42] Initializing net from parameters: 
name: "CIFAR10_quick"
state {
  phase: TEST
}
layer {
  name: "cifar"
  type: "Data"
  top: "data"
  top: "label"
  include {
    phase: TEST
  }
  transform_param {
    mean_file: "net/mean.binaryproto"
  }
  data_param {
    source: "net/test-db"
    batch_size: 100
    backend: LMDB
  }
}
layer {
  name: "conv1"
  type: "Convolution"
  bottom: "data"
  top: "conv1"
  convolution_param {
    num_output: 32
    pad: 1
    kernel_size: 3
    stride: 1
    weight_filler {
      type: "gaussian"
      std: 0.0001
    }
    bias_filler {
      type: "constant"
    }
  }
}
layer {
  name: "relu1"
  type: "ReLU"
  bottom: "conv1"
  top: "relu1"
}
layer {
  name: "pool1"
  type: "Pooling"
  bottom: "relu1"
  top: "pool1"
  pooling_param {
    pool: MAX
    kernel_size: 2
    stride: 1
  }
}
layer {
  name: "conv3"
  type: "Convolution"
  bottom: "pool1"
  top: "conv3"
  convolution_param {
    num_output: 64
    pad: 1
    kernel_size: 3
    stride: 1
    weight_filler {
      type: "gaussian"
      std: 0.0001
    }
    bias_filler {
      type: "constant"
    }
  }
}
layer {
  name: "relu3"
  type: "ReLU"
  bottom: "conv3"
  top: "relu3"
}
layer {
  name: "ip1"
  type: "InnerProduct"
  bottom: "relu3"
  top: "ip1"
  inner_product_param {
    num_output: 64
    weight_filler {
      type: "gaussian"
      std: 0.1
    }
    bias_filler {
      type: "constant"
    }
  }
}
layer {
  name: "relu4"
  type: "ReLU"
  bottom: "ip1"
  top: "relu4"
}
layer {
  name: "ip2"
  type: "InnerProduct"
  bottom: "relu4"
  top: "ip2"
  inner_product_param {
    num_output: 32
    weight_filler {
      type: "gaussian"
      std: 0.1
    }
    bias_filler {
      type: "constant"
    }
  }
}
layer {
  name: "relu5"
  type: "ReLU"
  bottom: "ip2"
  top: "relu5"
}
layer {
  name: "ip3"
  type: "InnerProduct"
  bottom: "relu5"
  top: "ip3"
  inner_product_param {
    num_output: 10
    weight_filler {
      type: "gaussian"
      std: 0.1
    }
    bias_filler {
      type: "constant"
    }
  }
}
layer {
  name: "accuracy"
  type: "Accuracy"
  bottom: "ip3"
  bottom: "label"
  top: "accuracy"
  include {
    phase: TEST
  }
}
layer {
  name: "loss"
  type: "SoftmaxWithLoss"
  bottom: "ip3"
  bottom: "label"
  top: "loss"
}
I0111 13:39:35.072294 20026 layer_factory.hpp:74] Creating layer cifar
I0111 13:39:35.072301 20026 net.cpp:76] Creating Layer cifar
I0111 13:39:35.072304 20026 net.cpp:334] cifar -> data
I0111 13:39:35.072310 20026 net.cpp:334] cifar -> label
I0111 13:39:35.072315 20026 net.cpp:105] Setting up cifar
I0111 13:39:35.072350 20026 db.cpp:34] Opened lmdb net/test-db
I0111 13:39:35.072365 20026 data_layer.cpp:67] output data size: 100,3,32,32
I0111 13:39:35.072370 20026 data_transformer.cpp:22] Loading mean file from: net/mean.binaryproto
I0111 13:39:35.072708 20026 net.cpp:112] Top shape: 100 3 32 32 (307200)
I0111 13:39:35.072716 20026 net.cpp:112] Top shape: 100 1 1 1 (100)
I0111 13:39:35.072732 20026 layer_factory.hpp:74] Creating layer label_cifar_1_split
I0111 13:39:35.072737 20026 net.cpp:76] Creating Layer label_cifar_1_split
I0111 13:39:35.072739 20026 net.cpp:372] label_cifar_1_split <- label
I0111 13:39:35.072744 20026 net.cpp:334] label_cifar_1_split -> label_cifar_1_split_0
I0111 13:39:35.072749 20026 net.cpp:334] label_cifar_1_split -> label_cifar_1_split_1
I0111 13:39:35.072753 20026 net.cpp:105] Setting up label_cifar_1_split
I0111 13:39:35.072757 20026 net.cpp:112] Top shape: 100 1 1 1 (100)
I0111 13:39:35.072760 20026 net.cpp:112] Top shape: 100 1 1 1 (100)
I0111 13:39:35.072762 20026 layer_factory.hpp:74] Creating layer conv1
I0111 13:39:35.072767 20026 net.cpp:76] Creating Layer conv1
I0111 13:39:35.072770 20026 net.cpp:372] conv1 <- data
I0111 13:39:35.072773 20026 net.cpp:334] conv1 -> conv1
I0111 13:39:35.072778 20026 net.cpp:105] Setting up conv1
I0111 13:39:35.072810 20026 net.cpp:112] Top shape: 100 32 32 32 (3276800)
I0111 13:39:35.072818 20026 layer_factory.hpp:74] Creating layer relu1
I0111 13:39:35.072821 20026 net.cpp:76] Creating Layer relu1
I0111 13:39:35.072824 20026 net.cpp:372] relu1 <- conv1
I0111 13:39:35.072829 20026 net.cpp:334] relu1 -> relu1
I0111 13:39:35.072832 20026 net.cpp:105] Setting up relu1
I0111 13:39:35.072835 20026 net.cpp:112] Top shape: 100 32 32 32 (3276800)
I0111 13:39:35.072837 20026 layer_factory.hpp:74] Creating layer pool1
I0111 13:39:35.072841 20026 net.cpp:76] Creating Layer pool1
I0111 13:39:35.072844 20026 net.cpp:372] pool1 <- relu1
I0111 13:39:35.072849 20026 net.cpp:334] pool1 -> pool1
I0111 13:39:35.072852 20026 net.cpp:105] Setting up pool1
I0111 13:39:35.072855 20026 net.cpp:112] Top shape: 100 32 31 31 (3075200)
I0111 13:39:35.072860 20026 layer_factory.hpp:74] Creating layer conv3
I0111 13:39:35.072863 20026 net.cpp:76] Creating Layer conv3
I0111 13:39:35.072865 20026 net.cpp:372] conv3 <- pool1
I0111 13:39:35.072870 20026 net.cpp:334] conv3 -> conv3
I0111 13:39:35.072875 20026 net.cpp:105] Setting up conv3
I0111 13:39:35.073323 20026 net.cpp:112] Top shape: 100 64 31 31 (6150400)
I0111 13:39:35.073328 20026 layer_factory.hpp:74] Creating layer relu3
I0111 13:39:35.073333 20026 net.cpp:76] Creating Layer relu3
I0111 13:39:35.073336 20026 net.cpp:372] relu3 <- conv3
I0111 13:39:35.073339 20026 net.cpp:334] relu3 -> relu3
I0111 13:39:35.073343 20026 net.cpp:105] Setting up relu3
I0111 13:39:35.073348 20026 net.cpp:112] Top shape: 100 64 31 31 (6150400)
I0111 13:39:35.073349 20026 layer_factory.hpp:74] Creating layer ip1
I0111 13:39:35.073354 20026 net.cpp:76] Creating Layer ip1
I0111 13:39:35.073355 20026 net.cpp:372] ip1 <- relu3
I0111 13:39:35.073361 20026 net.cpp:334] ip1 -> ip1
I0111 13:39:35.073366 20026 net.cpp:105] Setting up ip1
I0111 13:39:35.167196 20026 net.cpp:112] Top shape: 100 64 1 1 (6400)
I0111 13:39:35.167227 20026 layer_factory.hpp:74] Creating layer relu4
I0111 13:39:35.167237 20026 net.cpp:76] Creating Layer relu4
I0111 13:39:35.167240 20026 net.cpp:372] relu4 <- ip1
I0111 13:39:35.167245 20026 net.cpp:334] relu4 -> relu4
I0111 13:39:35.167253 20026 net.cpp:105] Setting up relu4
I0111 13:39:35.167255 20026 net.cpp:112] Top shape: 100 64 1 1 (6400)
I0111 13:39:35.167260 20026 layer_factory.hpp:74] Creating layer ip2
I0111 13:39:35.167268 20026 net.cpp:76] Creating Layer ip2
I0111 13:39:35.167271 20026 net.cpp:372] ip2 <- relu4
I0111 13:39:35.167274 20026 net.cpp:334] ip2 -> ip2
I0111 13:39:35.167279 20026 net.cpp:105] Setting up ip2
I0111 13:39:35.167340 20026 net.cpp:112] Top shape: 100 32 1 1 (3200)
I0111 13:39:35.167346 20026 layer_factory.hpp:74] Creating layer relu5
I0111 13:39:35.167348 20026 net.cpp:76] Creating Layer relu5
I0111 13:39:35.167351 20026 net.cpp:372] relu5 <- ip2
I0111 13:39:35.167354 20026 net.cpp:334] relu5 -> relu5
I0111 13:39:35.167357 20026 net.cpp:105] Setting up relu5
I0111 13:39:35.167359 20026 net.cpp:112] Top shape: 100 32 1 1 (3200)
I0111 13:39:35.167362 20026 layer_factory.hpp:74] Creating layer ip3
I0111 13:39:35.167366 20026 net.cpp:76] Creating Layer ip3
I0111 13:39:35.167368 20026 net.cpp:372] ip3 <- relu5
I0111 13:39:35.167384 20026 net.cpp:334] ip3 -> ip3
I0111 13:39:35.167388 20026 net.cpp:105] Setting up ip3
I0111 13:39:35.167402 20026 net.cpp:112] Top shape: 100 10 1 1 (1000)
I0111 13:39:35.167409 20026 layer_factory.hpp:74] Creating layer ip3_ip3_0_split
I0111 13:39:35.167413 20026 net.cpp:76] Creating Layer ip3_ip3_0_split
I0111 13:39:35.167418 20026 net.cpp:372] ip3_ip3_0_split <- ip3
I0111 13:39:35.167420 20026 net.cpp:334] ip3_ip3_0_split -> ip3_ip3_0_split_0
I0111 13:39:35.167425 20026 net.cpp:334] ip3_ip3_0_split -> ip3_ip3_0_split_1
I0111 13:39:35.167429 20026 net.cpp:105] Setting up ip3_ip3_0_split
I0111 13:39:35.167433 20026 net.cpp:112] Top shape: 100 10 1 1 (1000)
I0111 13:39:35.167435 20026 net.cpp:112] Top shape: 100 10 1 1 (1000)
I0111 13:39:35.167438 20026 layer_factory.hpp:74] Creating layer accuracy
I0111 13:39:35.167445 20026 net.cpp:76] Creating Layer accuracy
I0111 13:39:35.167448 20026 net.cpp:372] accuracy <- ip3_ip3_0_split_0
I0111 13:39:35.167451 20026 net.cpp:372] accuracy <- label_cifar_1_split_0
I0111 13:39:35.167454 20026 net.cpp:334] accuracy -> accuracy
I0111 13:39:35.167459 20026 net.cpp:105] Setting up accuracy
I0111 13:39:35.167464 20026 net.cpp:112] Top shape: 1 1 1 1 (1)
I0111 13:39:35.167466 20026 layer_factory.hpp:74] Creating layer loss
I0111 13:39:35.167472 20026 net.cpp:76] Creating Layer loss
I0111 13:39:35.167474 20026 net.cpp:372] loss <- ip3_ip3_0_split_1
I0111 13:39:35.167477 20026 net.cpp:372] loss <- label_cifar_1_split_1
I0111 13:39:35.167481 20026 net.cpp:334] loss -> loss
I0111 13:39:35.167484 20026 net.cpp:105] Setting up loss
I0111 13:39:35.167489 20026 layer_factory.hpp:74] Creating layer loss
I0111 13:39:35.167497 20026 net.cpp:112] Top shape: 1 1 1 1 (1)
I0111 13:39:35.167501 20026 net.cpp:118]     with loss weight 1
I0111 13:39:35.167511 20026 net.cpp:163] loss needs backward computation.
I0111 13:39:35.167515 20026 net.cpp:165] accuracy does not need backward computation.
I0111 13:39:35.167516 20026 net.cpp:163] ip3_ip3_0_split needs backward computation.
I0111 13:39:35.167518 20026 net.cpp:163] ip3 needs backward computation.
I0111 13:39:35.167521 20026 net.cpp:163] relu5 needs backward computation.
…
