…
I0111 16:51:38.738500 21606 net.cpp:253] The NetState phase (0) differed from the phase (1) specified by a rule in layer cifar
I0111 16:51:38.738513 21606 net.cpp:253] The NetState phase (0) differed from the phase (1) specified by a rule in layer accuracy
I0111 16:51:38.738579 21606 net.cpp:42] Initializing net from parameters: 
name: "CIFAR10_quick"
state {
  phase: TRAIN
}
layer {
  name: "cifar"
  type: "Data"
  top: "data"
  top: "label"
  include {
    phase: TRAIN
  }
  transform_param {
    mean_file: "net/mean.binaryproto"
  }
  data_param {
    source: "net/train-db"
    batch_size: 500
    backend: LMDB
  }
}
layer {
  name: "conv1"
  type: "Convolution"
  bottom: "data"
  top: "conv1"
  convolution_param {
    num_output: 32
    pad: 1
    kernel_size: 3
    stride: 1
    weight_filler {
      type: "gaussian"
      std: 0.0001
    }
    bias_filler {
      type: "constant"
    }
  }
}
layer {
  name: "relu1"
  type: "ReLU"
  bottom: "conv1"
  top: "relu1"
}
layer {
  name: "pool1"
  type: "Pooling"
  bottom: "relu1"
  top: "pool1"
  pooling_param {
    pool: MAX
    kernel_size: 2
    stride: 1
  }
}
layer {
  name: "conv3"
  type: "Convolution"
  bottom: "pool1"
  top: "conv3"
  convolution_param {
    num_output: 64
    pad: 1
    kernel_size: 3
    stride: 1
    weight_filler {
      type: "gaussian"
      std: 0.0001
    }
    bias_filler {
      type: "constant"
    }
  }
}
layer {
  name: "relu3"
  type: "ReLU"
  bottom: "conv3"
  top: "relu3"
}
layer {
  name: "ip1"
  type: "InnerProduct"
  bottom: "relu3"
  top: "ip1"
  inner_product_param {
    num_output: 64
    weight_filler {
      type: "gaussian"
      std: 0.1
    }
    bias_filler {
      type: "constant"
    }
  }
}
layer {
  name: "relu4"
  type: "ReLU"
  bottom: "ip1"
  top: "relu4"
}
layer {
  name: "ip2"
  type: "InnerProduct"
  bottom: "relu4"
  top: "ip2"
  inner_product_param {
    num_output: 32
    weight_filler {
      type: "gaussian"
      std: 0.1
    }
    bias_filler {
      type: "constant"
    }
  }
}
layer {
  name: "relu5"
  type: "ReLU"
  bottom: "ip2"
  top: "relu5"
}
layer {
  name: "ip3"
  type: "InnerProduct"
  bottom: "relu5"
  top: "ip3"
  inner_product_param {
    num_output: 10
    weight_filler {
      type: "gaussian"
      std: 0.1
    }
    bias_filler {
      type: "constant"
    }
  }
}
layer {
  name: "loss"
  type: "SoftmaxWithLoss"
  bottom: "ip3"
  bottom: "label"
  top: "loss"
}
I0111 16:51:38.738633 21606 layer_factory.hpp:74] Creating layer cifar
I0111 16:51:38.738656 21606 net.cpp:76] Creating Layer cifar
I0111 16:51:38.738662 21606 net.cpp:334] cifar -> data
I0111 16:51:38.738680 21606 net.cpp:334] cifar -> label
I0111 16:51:38.738688 21606 net.cpp:105] Setting up cifar
I0111 16:51:38.738745 21606 db.cpp:34] Opened lmdb net/train-db
I0111 16:51:38.738775 21606 data_layer.cpp:67] output data size: 500,3,32,32
I0111 16:51:38.738785 21606 data_transformer.cpp:22] Loading mean file from: net/mean.binaryproto
I0111 16:51:38.739717 21606 net.cpp:112] Top shape: 500 3 32 32 (1536000)
I0111 16:51:38.739727 21606 net.cpp:112] Top shape: 500 1 1 1 (500)
I0111 16:51:38.739732 21606 layer_factory.hpp:74] Creating layer conv1
I0111 16:51:38.739739 21606 net.cpp:76] Creating Layer conv1
I0111 16:51:38.739743 21606 net.cpp:372] conv1 <- data
I0111 16:51:38.739754 21606 net.cpp:334] conv1 -> conv1
I0111 16:51:38.739766 21606 net.cpp:105] Setting up conv1
I0111 16:51:38.740147 21606 net.cpp:112] Top shape: 500 32 32 32 (16384000)
I0111 16:51:38.740164 21606 layer_factory.hpp:74] Creating layer relu1
I0111 16:51:38.740171 21606 net.cpp:76] Creating Layer relu1
I0111 16:51:38.740190 21606 net.cpp:372] relu1 <- conv1
I0111 16:51:38.740195 21606 net.cpp:334] relu1 -> relu1
I0111 16:51:38.740200 21606 net.cpp:105] Setting up relu1
I0111 16:51:38.740203 21606 net.cpp:112] Top shape: 500 32 32 32 (16384000)
I0111 16:51:38.740207 21606 layer_factory.hpp:74] Creating layer pool1
I0111 16:51:38.740213 21606 net.cpp:76] Creating Layer pool1
I0111 16:51:38.740219 21606 net.cpp:372] pool1 <- relu1
I0111 16:51:38.740223 21606 net.cpp:334] pool1 -> pool1
I0111 16:51:38.740231 21606 net.cpp:105] Setting up pool1
I0111 16:51:38.740245 21606 net.cpp:112] Top shape: 500 32 31 31 (15376000)
I0111 16:51:38.740248 21606 layer_factory.hpp:74] Creating layer conv3
I0111 16:51:38.740253 21606 net.cpp:76] Creating Layer conv3
I0111 16:51:38.740255 21606 net.cpp:372] conv3 <- pool1
I0111 16:51:38.740259 21606 net.cpp:334] conv3 -> conv3
I0111 16:51:38.740265 21606 net.cpp:105] Setting up conv3
I0111 16:51:38.740737 21606 net.cpp:112] Top shape: 500 64 31 31 (30752000)
I0111 16:51:38.740749 21606 layer_factory.hpp:74] Creating layer relu3
I0111 16:51:38.740753 21606 net.cpp:76] Creating Layer relu3
I0111 16:51:38.740756 21606 net.cpp:372] relu3 <- conv3
I0111 16:51:38.740759 21606 net.cpp:334] relu3 -> relu3
I0111 16:51:38.740762 21606 net.cpp:105] Setting up relu3
I0111 16:51:38.740766 21606 net.cpp:112] Top shape: 500 64 31 31 (30752000)
I0111 16:51:38.740768 21606 layer_factory.hpp:74] Creating layer ip1
I0111 16:51:38.740774 21606 net.cpp:76] Creating Layer ip1
I0111 16:51:38.740779 21606 net.cpp:372] ip1 <- relu3
I0111 16:51:38.740784 21606 net.cpp:334] ip1 -> ip1
I0111 16:51:38.740793 21606 net.cpp:105] Setting up ip1
I0111 16:51:38.834527 21606 net.cpp:112] Top shape: 500 64 1 1 (32000)
I0111 16:51:38.834556 21606 layer_factory.hpp:74] Creating layer relu4
I0111 16:51:38.834568 21606 net.cpp:76] Creating Layer relu4
I0111 16:51:38.834571 21606 net.cpp:372] relu4 <- ip1
I0111 16:51:38.834578 21606 net.cpp:334] relu4 -> relu4
I0111 16:51:38.834585 21606 net.cpp:105] Setting up relu4
I0111 16:51:38.834589 21606 net.cpp:112] Top shape: 500 64 1 1 (32000)
I0111 16:51:38.834591 21606 layer_factory.hpp:74] Creating layer ip2
I0111 16:51:38.834602 21606 net.cpp:76] Creating Layer ip2
I0111 16:51:38.834609 21606 net.cpp:372] ip2 <- relu4
I0111 16:51:38.834614 21606 net.cpp:334] ip2 -> ip2
I0111 16:51:38.834621 21606 net.cpp:105] Setting up ip2
I0111 16:51:38.834687 21606 net.cpp:112] Top shape: 500 32 1 1 (16000)
I0111 16:51:38.834695 21606 layer_factory.hpp:74] Creating layer relu5
I0111 16:51:38.834698 21606 net.cpp:76] Creating Layer relu5
I0111 16:51:38.834700 21606 net.cpp:372] relu5 <- ip2
I0111 16:51:38.834703 21606 net.cpp:334] relu5 -> relu5
I0111 16:51:38.834707 21606 net.cpp:105] Setting up relu5
I0111 16:51:38.834709 21606 net.cpp:112] Top shape: 500 32 1 1 (16000)
I0111 16:51:38.834712 21606 layer_factory.hpp:74] Creating layer ip3
I0111 16:51:38.834717 21606 net.cpp:76] Creating Layer ip3
I0111 16:51:38.834722 21606 net.cpp:372] ip3 <- relu5
I0111 16:51:38.834728 21606 net.cpp:334] ip3 -> ip3
I0111 16:51:38.834735 21606 net.cpp:105] Setting up ip3
I0111 16:51:38.834751 21606 net.cpp:112] Top shape: 500 10 1 1 (5000)
I0111 16:51:38.834758 21606 layer_factory.hpp:74] Creating layer loss
I0111 16:51:38.834767 21606 net.cpp:76] Creating Layer loss
I0111 16:51:38.834771 21606 net.cpp:372] loss <- ip3
I0111 16:51:38.834776 21606 net.cpp:372] loss <- label
I0111 16:51:38.834784 21606 net.cpp:334] loss -> loss
I0111 16:51:38.834790 21606 net.cpp:105] Setting up loss
I0111 16:51:38.834806 21606 layer_factory.hpp:74] Creating layer loss
I0111 16:51:38.834827 21606 net.cpp:112] Top shape: 1 1 1 1 (1)
I0111 16:51:38.834832 21606 net.cpp:118]     with loss weight 1
I0111 16:51:38.834851 21606 net.cpp:163] loss needs backward computation.
I0111 16:51:38.834856 21606 net.cpp:163] ip3 needs backward computation.
I0111 16:51:38.834861 21606 net.cpp:163] relu5 needs backward computation.
I0111 16:51:38.834867 21606 net.cpp:163] ip2 needs backward computation.
I0111 16:51:38.834868 21606 net.cpp:163] relu4 needs backward computation.
…
I0111 16:51:38.835201 21606 solver.cpp:154] Creating test net (#0) specified by net file: net/architecture.prototxt
I0111 16:51:38.835224 21606 net.cpp:253] The NetState phase (1) differed from the phase (0) specified by a rule in layer cifar
I0111 16:51:38.835300 21606 net.cpp:42] Initializing net from parameters: 
name: "CIFAR10_quick"
state {
  phase: TEST
}
layer {
  name: "cifar"
  type: "Data"
  top: "data"
  top: "label"
  include {
    phase: TEST
  }
  transform_param {
    mean_file: "net/mean.binaryproto"
  }
  data_param {
    source: "net/test-db"
    batch_size: 500
    backend: LMDB
  }
}
layer {
  name: "conv1"
  type: "Convolution"
  bottom: "data"
  top: "conv1"
  convolution_param {
    num_output: 32
    pad: 1
    kernel_size: 3
    stride: 1
    weight_filler {
      type: "gaussian"
      std: 0.0001
    }
    bias_filler {
      type: "constant"
    }
  }
}
layer {
  name: "relu1"
  type: "ReLU"
  bottom: "conv1"
  top: "relu1"
}
layer {
  name: "pool1"
  type: "Pooling"
  bottom: "relu1"
  top: "pool1"
  pooling_param {
    pool: MAX
    kernel_size: 2
    stride: 1
  }
}
layer {
  name: "conv3"
  type: "Convolution"
  bottom: "pool1"
  top: "conv3"
  convolution_param {
    num_output: 64
    pad: 1
    kernel_size: 3
    stride: 1
    weight_filler {
      type: "gaussian"
      std: 0.0001
    }
    bias_filler {
      type: "constant"
    }
  }
}
layer {
  name: "relu3"
  type: "ReLU"
  bottom: "conv3"
  top: "relu3"
}
layer {
  name: "ip1"
  type: "InnerProduct"
  bottom: "relu3"
  top: "ip1"
  inner_product_param {
    num_output: 64
    weight_filler {
      type: "gaussian"
      std: 0.1
    }
    bias_filler {
      type: "constant"
    }
  }
}
layer {
  name: "relu4"
  type: "ReLU"
  bottom: "ip1"
  top: "relu4"
}
layer {
  name: "ip2"
  type: "InnerProduct"
  bottom: "relu4"
  top: "ip2"
  inner_product_param {
    num_output: 32
    weight_filler {
      type: "gaussian"
      std: 0.1
    }
    bias_filler {
      type: "constant"
    }
  }
}
layer {
  name: "relu5"
  type: "ReLU"
  bottom: "ip2"
  top: "relu5"
}
layer {
  name: "ip3"
  type: "InnerProduct"
  bottom: "relu5"
  top: "ip3"
  inner_product_param {
    num_output: 10
    weight_filler {
      type: "gaussian"
      std: 0.1
    }
    bias_filler {
      type: "constant"
    }
  }
}
layer {
  name: "accuracy"
  type: "Accuracy"
  bottom: "ip3"
  bottom: "label"
  top: "accuracy"
  include {
    phase: TEST
  }
}
layer {
  name: "loss"
  type: "SoftmaxWithLoss"
  bottom: "ip3"
  bottom: "label"
  top: "loss"
}
I0111 16:51:38.835361 21606 layer_factory.hpp:74] Creating layer cifar
I0111 16:51:38.835367 21606 net.cpp:76] Creating Layer cifar
I0111 16:51:38.835371 21606 net.cpp:334] cifar -> data
I0111 16:51:38.835376 21606 net.cpp:334] cifar -> label
I0111 16:51:38.835381 21606 net.cpp:105] Setting up cifar
I0111 16:51:38.835417 21606 db.cpp:34] Opened lmdb net/test-db
I0111 16:51:38.835433 21606 data_layer.cpp:67] output data size: 500,3,32,32
I0111 16:51:38.835438 21606 data_transformer.cpp:22] Loading mean file from: net/mean.binaryproto
I0111 16:51:38.836323 21606 net.cpp:112] Top shape: 500 3 32 32 (1536000)
I0111 16:51:38.836330 21606 net.cpp:112] Top shape: 500 1 1 1 (500)
I0111 16:51:38.836344 21606 layer_factory.hpp:74] Creating layer label_cifar_1_split
I0111 16:51:38.836350 21606 net.cpp:76] Creating Layer label_cifar_1_split
I0111 16:51:38.836352 21606 net.cpp:372] label_cifar_1_split <- label
I0111 16:51:38.836356 21606 net.cpp:334] label_cifar_1_split -> label_cifar_1_split_0
I0111 16:51:38.836362 21606 net.cpp:334] label_cifar_1_split -> label_cifar_1_split_1
I0111 16:51:38.836366 21606 net.cpp:105] Setting up label_cifar_1_split
I0111 16:51:38.836369 21606 net.cpp:112] Top shape: 500 1 1 1 (500)
I0111 16:51:38.836374 21606 net.cpp:112] Top shape: 500 1 1 1 (500)
I0111 16:51:38.836376 21606 layer_factory.hpp:74] Creating layer conv1
I0111 16:51:38.836381 21606 net.cpp:76] Creating Layer conv1
I0111 16:51:38.836383 21606 net.cpp:372] conv1 <- data
I0111 16:51:38.836386 21606 net.cpp:334] conv1 -> conv1
I0111 16:51:38.836391 21606 net.cpp:105] Setting up conv1
I0111 16:51:38.836424 21606 net.cpp:112] Top shape: 500 32 32 32 (16384000)
I0111 16:51:38.836436 21606 layer_factory.hpp:74] Creating layer relu1
I0111 16:51:38.836441 21606 net.cpp:76] Creating Layer relu1
I0111 16:51:38.836442 21606 net.cpp:372] relu1 <- conv1
I0111 16:51:38.836447 21606 net.cpp:334] relu1 -> relu1
I0111 16:51:38.836449 21606 net.cpp:105] Setting up relu1
I0111 16:51:38.836452 21606 net.cpp:112] Top shape: 500 32 32 32 (16384000)
I0111 16:51:38.836454 21606 layer_factory.hpp:74] Creating layer pool1
I0111 16:51:38.836458 21606 net.cpp:76] Creating Layer pool1
I0111 16:51:38.836464 21606 net.cpp:372] pool1 <- relu1
I0111 16:51:38.836467 21606 net.cpp:334] pool1 -> pool1
I0111 16:51:38.836470 21606 net.cpp:105] Setting up pool1
I0111 16:51:38.836474 21606 net.cpp:112] Top shape: 500 32 31 31 (15376000)
I0111 16:51:38.836477 21606 layer_factory.hpp:74] Creating layer conv3
I0111 16:51:38.836483 21606 net.cpp:76] Creating Layer conv3
I0111 16:51:38.836486 21606 net.cpp:372] conv3 <- pool1
I0111 16:51:38.836491 21606 net.cpp:334] conv3 -> conv3
I0111 16:51:38.836495 21606 net.cpp:105] Setting up conv3
I0111 16:51:38.836954 21606 net.cpp:112] Top shape: 500 64 31 31 (30752000)
I0111 16:51:38.836962 21606 layer_factory.hpp:74] Creating layer relu3
I0111 16:51:38.836966 21606 net.cpp:76] Creating Layer relu3
I0111 16:51:38.836968 21606 net.cpp:372] relu3 <- conv3
I0111 16:51:38.836971 21606 net.cpp:334] relu3 -> relu3
I0111 16:51:38.836976 21606 net.cpp:105] Setting up relu3
I0111 16:51:38.836978 21606 net.cpp:112] Top shape: 500 64 31 31 (30752000)
I0111 16:51:38.836980 21606 layer_factory.hpp:74] Creating layer ip1
I0111 16:51:38.836985 21606 net.cpp:76] Creating Layer ip1
I0111 16:51:38.836988 21606 net.cpp:372] ip1 <- relu3
I0111 16:51:38.836992 21606 net.cpp:334] ip1 -> ip1
I0111 16:51:38.836995 21606 net.cpp:105] Setting up ip1
I0111 16:51:38.930842 21606 net.cpp:112] Top shape: 500 64 1 1 (32000)
I0111 16:51:38.930872 21606 layer_factory.hpp:74] Creating layer relu4
I0111 16:51:38.930882 21606 net.cpp:76] Creating Layer relu4
I0111 16:51:38.930886 21606 net.cpp:372] relu4 <- ip1
I0111 16:51:38.930892 21606 net.cpp:334] relu4 -> relu4
I0111 16:51:38.930899 21606 net.cpp:105] Setting up relu4
I0111 16:51:38.930902 21606 net.cpp:112] Top shape: 500 64 1 1 (32000)
I0111 16:51:38.930904 21606 layer_factory.hpp:74] Creating layer ip2
I0111 16:51:38.930910 21606 net.cpp:76] Creating Layer ip2
I0111 16:51:38.930915 21606 net.cpp:372] ip2 <- relu4
I0111 16:51:38.930919 21606 net.cpp:334] ip2 -> ip2
I0111 16:51:38.930923 21606 net.cpp:105] Setting up ip2
I0111 16:51:38.930984 21606 net.cpp:112] Top shape: 500 32 1 1 (16000)
I0111 16:51:38.930989 21606 layer_factory.hpp:74] Creating layer relu5
I0111 16:51:38.930992 21606 net.cpp:76] Creating Layer relu5
I0111 16:51:38.930994 21606 net.cpp:372] relu5 <- ip2
I0111 16:51:38.930997 21606 net.cpp:334] relu5 -> relu5
I0111 16:51:38.931000 21606 net.cpp:105] Setting up relu5
I0111 16:51:38.931002 21606 net.cpp:112] Top shape: 500 32 1 1 (16000)
I0111 16:51:38.931005 21606 layer_factory.hpp:74] Creating layer ip3
I0111 16:51:38.931010 21606 net.cpp:76] Creating Layer ip3
I0111 16:51:38.931023 21606 net.cpp:372] ip3 <- relu5
I0111 16:51:38.931027 21606 net.cpp:334] ip3 -> ip3
I0111 16:51:38.931031 21606 net.cpp:105] Setting up ip3
I0111 16:51:38.931046 21606 net.cpp:112] Top shape: 500 10 1 1 (5000)
I0111 16:51:38.931052 21606 layer_factory.hpp:74] Creating layer ip3_ip3_0_split
I0111 16:51:38.931056 21606 net.cpp:76] Creating Layer ip3_ip3_0_split
I0111 16:51:38.931059 21606 net.cpp:372] ip3_ip3_0_split <- ip3
I0111 16:51:38.931062 21606 net.cpp:334] ip3_ip3_0_split -> ip3_ip3_0_split_0
I0111 16:51:38.931066 21606 net.cpp:334] ip3_ip3_0_split -> ip3_ip3_0_split_1
I0111 16:51:38.931069 21606 net.cpp:105] Setting up ip3_ip3_0_split
I0111 16:51:38.931072 21606 net.cpp:112] Top shape: 500 10 1 1 (5000)
I0111 16:51:38.931074 21606 net.cpp:112] Top shape: 500 10 1 1 (5000)
I0111 16:51:38.931077 21606 layer_factory.hpp:74] Creating layer accuracy
I0111 16:51:38.931087 21606 net.cpp:76] Creating Layer accuracy
I0111 16:51:38.931092 21606 net.cpp:372] accuracy <- ip3_ip3_0_split_0
I0111 16:51:38.931094 21606 net.cpp:372] accuracy <- label_cifar_1_split_0
I0111 16:51:38.931098 21606 net.cpp:334] accuracy -> accuracy
I0111 16:51:38.931103 21606 net.cpp:105] Setting up accuracy
I0111 16:51:38.931107 21606 net.cpp:112] Top shape: 1 1 1 1 (1)
I0111 16:51:38.931108 21606 layer_factory.hpp:74] Creating layer loss
I0111 16:51:38.931113 21606 net.cpp:76] Creating Layer loss
I0111 16:51:38.931114 21606 net.cpp:372] loss <- ip3_ip3_0_split_1
I0111 16:51:38.931118 21606 net.cpp:372] loss <- label_cifar_1_split_1
I0111 16:51:38.931121 21606 net.cpp:334] loss -> loss
I0111 16:51:38.931124 21606 net.cpp:105] Setting up loss
I0111 16:51:38.931128 21606 layer_factory.hpp:74] Creating layer loss
I0111 16:51:38.931148 21606 net.cpp:112] Top shape: 1 1 1 1 (1)
I0111 16:51:38.931150 21606 net.cpp:118]     with loss weight 1
I0111 16:51:38.931160 21606 net.cpp:163] loss needs backward computation.
I0111 16:51:38.931162 21606 net.cpp:165] accuracy does not need backward computation.
I0111 16:51:38.931164 21606 net.cpp:163] ip3_ip3_0_split needs backward computation.
I0111 16:51:38.931166 21606 net.cpp:163] ip3 needs backward computation.
I0111 16:51:38.931169 21606 net.cpp:163] relu5 needs backward computation.
…
