…
I0111 13:12:46.491325 32479 net.cpp:253] The NetState phase (0) differed from the phase (1) specified by a rule in layer cifar
I0111 13:12:46.491343 32479 net.cpp:253] The NetState phase (0) differed from the phase (1) specified by a rule in layer accuracy
I0111 13:12:46.491410 32479 net.cpp:42] Initializing net from parameters: 
name: "CIFAR10_quick"
state {
  phase: TRAIN
}
layer {
  name: "cifar"
  type: "Data"
  top: "data"
  top: "label"
  include {
    phase: TRAIN
  }
  transform_param {
    mean_file: "net/mean.binaryproto"
  }
  data_param {
    source: "net/train-db"
    batch_size: 100
    backend: LMDB
  }
}
layer {
  name: "conv1"
  type: "Convolution"
  bottom: "data"
  top: "conv1"
  convolution_param {
    num_output: 32
    pad: 1
    kernel_size: 3
    stride: 1
    weight_filler {
      type: "gaussian"
      std: 0.0001
    }
    bias_filler {
      type: "constant"
    }
  }
}
layer {
  name: "relu1"
  type: "ReLU"
  bottom: "conv1"
  top: "relu1"
}
layer {
  name: "pool1"
  type: "Pooling"
  bottom: "relu1"
  top: "pool1"
  pooling_param {
    pool: MAX
    kernel_size: 2
    stride: 1
  }
}
layer {
  name: "conv3"
  type: "Convolution"
  bottom: "pool1"
  top: "conv3"
  convolution_param {
    num_output: 64
    pad: 1
    kernel_size: 3
    stride: 1
    weight_filler {
      type: "gaussian"
      std: 0.0001
    }
    bias_filler {
      type: "constant"
    }
  }
}
layer {
  name: "relu3"
  type: "ReLU"
  bottom: "conv3"
  top: "relu3"
}
layer {
  name: "ip1"
  type: "InnerProduct"
  bottom: "relu3"
  top: "ip1"
  inner_product_param {
    num_output: 64
    weight_filler {
      type: "gaussian"
      std: 0.1
    }
    bias_filler {
      type: "constant"
    }
  }
}
layer {
  name: "relu4"
  type: "ReLU"
  bottom: "ip1"
  top: "relu4"
}
layer {
  name: "ip2"
  type: "InnerProduct"
  bottom: "relu4"
  top: "ip2"
  inner_product_param {
    num_output: 32
    weight_filler {
      type: "gaussian"
      std: 0.1
    }
    bias_filler {
      type: "constant"
    }
  }
}
layer {
  name: "relu5"
  type: "ReLU"
  bottom: "ip2"
  top: "relu5"
}
layer {
  name: "ip3"
  type: "InnerProduct"
  bottom: "relu5"
  top: "ip3"
  inner_product_param {
    num_output: 10
    weight_filler {
      type: "gaussian"
      std: 0.1
    }
    bias_filler {
      type: "constant"
    }
  }
}
layer {
  name: "loss"
  type: "SoftmaxWithLoss"
  bottom: "ip3"
  bottom: "label"
  top: "loss"
}
I0111 13:12:46.491485 32479 layer_factory.hpp:74] Creating layer cifar
I0111 13:12:46.491507 32479 net.cpp:76] Creating Layer cifar
I0111 13:12:46.491514 32479 net.cpp:334] cifar -> data
I0111 13:12:46.491536 32479 net.cpp:334] cifar -> label
I0111 13:12:46.491549 32479 net.cpp:105] Setting up cifar
I0111 13:12:46.491601 32479 db.cpp:34] Opened lmdb net/train-db
I0111 13:12:46.491628 32479 data_layer.cpp:67] output data size: 100,3,32,32
I0111 13:12:46.491633 32479 data_transformer.cpp:22] Loading mean file from: net/mean.binaryproto
I0111 13:12:46.491998 32479 net.cpp:112] Top shape: 100 3 32 32 (307200)
I0111 13:12:46.492004 32479 net.cpp:112] Top shape: 100 1 1 1 (100)
I0111 13:12:46.492008 32479 layer_factory.hpp:74] Creating layer conv1
I0111 13:12:46.492019 32479 net.cpp:76] Creating Layer conv1
I0111 13:12:46.492023 32479 net.cpp:372] conv1 <- data
I0111 13:12:46.492032 32479 net.cpp:334] conv1 -> conv1
I0111 13:12:46.492038 32479 net.cpp:105] Setting up conv1
I0111 13:12:46.492413 32479 net.cpp:112] Top shape: 100 32 32 32 (3276800)
I0111 13:12:46.492427 32479 layer_factory.hpp:74] Creating layer relu1
I0111 13:12:46.492431 32479 net.cpp:76] Creating Layer relu1
I0111 13:12:46.492446 32479 net.cpp:372] relu1 <- conv1
I0111 13:12:46.492450 32479 net.cpp:334] relu1 -> relu1
I0111 13:12:46.492455 32479 net.cpp:105] Setting up relu1
I0111 13:12:46.492462 32479 net.cpp:112] Top shape: 100 32 32 32 (3276800)
I0111 13:12:46.492465 32479 layer_factory.hpp:74] Creating layer pool1
I0111 13:12:46.492468 32479 net.cpp:76] Creating Layer pool1
I0111 13:12:46.492470 32479 net.cpp:372] pool1 <- relu1
I0111 13:12:46.492475 32479 net.cpp:334] pool1 -> pool1
I0111 13:12:46.492480 32479 net.cpp:105] Setting up pool1
I0111 13:12:46.492487 32479 net.cpp:112] Top shape: 100 32 31 31 (3075200)
I0111 13:12:46.492491 32479 layer_factory.hpp:74] Creating layer conv3
I0111 13:12:46.492496 32479 net.cpp:76] Creating Layer conv3
I0111 13:12:46.492498 32479 net.cpp:372] conv3 <- pool1
I0111 13:12:46.492501 32479 net.cpp:334] conv3 -> conv3
I0111 13:12:46.492506 32479 net.cpp:105] Setting up conv3
I0111 13:12:46.493018 32479 net.cpp:112] Top shape: 100 64 31 31 (6150400)
I0111 13:12:46.493028 32479 layer_factory.hpp:74] Creating layer relu3
I0111 13:12:46.493032 32479 net.cpp:76] Creating Layer relu3
I0111 13:12:46.493034 32479 net.cpp:372] relu3 <- conv3
I0111 13:12:46.493038 32479 net.cpp:334] relu3 -> relu3
I0111 13:12:46.493041 32479 net.cpp:105] Setting up relu3
I0111 13:12:46.493044 32479 net.cpp:112] Top shape: 100 64 31 31 (6150400)
I0111 13:12:46.493046 32479 layer_factory.hpp:74] Creating layer ip1
I0111 13:12:46.493052 32479 net.cpp:76] Creating Layer ip1
I0111 13:12:46.493054 32479 net.cpp:372] ip1 <- relu3
I0111 13:12:46.493057 32479 net.cpp:334] ip1 -> ip1
I0111 13:12:46.493062 32479 net.cpp:105] Setting up ip1
I0111 13:12:46.586915 32479 net.cpp:112] Top shape: 100 64 1 1 (6400)
I0111 13:12:46.586942 32479 layer_factory.hpp:74] Creating layer relu4
I0111 13:12:46.586951 32479 net.cpp:76] Creating Layer relu4
I0111 13:12:46.586954 32479 net.cpp:372] relu4 <- ip1
I0111 13:12:46.586967 32479 net.cpp:334] relu4 -> relu4
I0111 13:12:46.586976 32479 net.cpp:105] Setting up relu4
I0111 13:12:46.586979 32479 net.cpp:112] Top shape: 100 64 1 1 (6400)
I0111 13:12:46.586982 32479 layer_factory.hpp:74] Creating layer ip2
I0111 13:12:46.586988 32479 net.cpp:76] Creating Layer ip2
I0111 13:12:46.586990 32479 net.cpp:372] ip2 <- relu4
I0111 13:12:46.586995 32479 net.cpp:334] ip2 -> ip2
I0111 13:12:46.587000 32479 net.cpp:105] Setting up ip2
I0111 13:12:46.587061 32479 net.cpp:112] Top shape: 100 32 1 1 (3200)
I0111 13:12:46.587066 32479 layer_factory.hpp:74] Creating layer relu5
I0111 13:12:46.587071 32479 net.cpp:76] Creating Layer relu5
I0111 13:12:46.587074 32479 net.cpp:372] relu5 <- ip2
I0111 13:12:46.587076 32479 net.cpp:334] relu5 -> relu5
I0111 13:12:46.587080 32479 net.cpp:105] Setting up relu5
I0111 13:12:46.587082 32479 net.cpp:112] Top shape: 100 32 1 1 (3200)
I0111 13:12:46.587085 32479 layer_factory.hpp:74] Creating layer ip3
I0111 13:12:46.587090 32479 net.cpp:76] Creating Layer ip3
I0111 13:12:46.587092 32479 net.cpp:372] ip3 <- relu5
I0111 13:12:46.587095 32479 net.cpp:334] ip3 -> ip3
I0111 13:12:46.587098 32479 net.cpp:105] Setting up ip3
I0111 13:12:46.587111 32479 net.cpp:112] Top shape: 100 10 1 1 (1000)
I0111 13:12:46.587118 32479 layer_factory.hpp:74] Creating layer loss
I0111 13:12:46.587122 32479 net.cpp:76] Creating Layer loss
I0111 13:12:46.587124 32479 net.cpp:372] loss <- ip3
I0111 13:12:46.587126 32479 net.cpp:372] loss <- label
I0111 13:12:46.587131 32479 net.cpp:334] loss -> loss
I0111 13:12:46.587136 32479 net.cpp:105] Setting up loss
I0111 13:12:46.587144 32479 layer_factory.hpp:74] Creating layer loss
I0111 13:12:46.587157 32479 net.cpp:112] Top shape: 1 1 1 1 (1)
I0111 13:12:46.587159 32479 net.cpp:118]     with loss weight 1
I0111 13:12:46.587172 32479 net.cpp:163] loss needs backward computation.
I0111 13:12:46.587175 32479 net.cpp:163] ip3 needs backward computation.
I0111 13:12:46.587177 32479 net.cpp:163] relu5 needs backward computation.
I0111 13:12:46.587179 32479 net.cpp:163] ip2 needs backward computation.
I0111 13:12:46.587182 32479 net.cpp:163] relu4 needs backward computation.
…
I0111 13:12:46.587518 32479 solver.cpp:154] Creating test net (#0) specified by net file: net/architecture.prototxt
I0111 13:12:46.587543 32479 net.cpp:253] The NetState phase (1) differed from the phase (0) specified by a rule in layer cifar
I0111 13:12:46.587618 32479 net.cpp:42] Initializing net from parameters: 
name: "CIFAR10_quick"
state {
  phase: TEST
}
layer {
  name: "cifar"
  type: "Data"
  top: "data"
  top: "label"
  include {
    phase: TEST
  }
  transform_param {
    mean_file: "net/mean.binaryproto"
  }
  data_param {
    source: "net/test-db"
    batch_size: 100
    backend: LMDB
  }
}
layer {
  name: "conv1"
  type: "Convolution"
  bottom: "data"
  top: "conv1"
  convolution_param {
    num_output: 32
    pad: 1
    kernel_size: 3
    stride: 1
    weight_filler {
      type: "gaussian"
      std: 0.0001
    }
    bias_filler {
      type: "constant"
    }
  }
}
layer {
  name: "relu1"
  type: "ReLU"
  bottom: "conv1"
  top: "relu1"
}
layer {
  name: "pool1"
  type: "Pooling"
  bottom: "relu1"
  top: "pool1"
  pooling_param {
    pool: MAX
    kernel_size: 2
    stride: 1
  }
}
layer {
  name: "conv3"
  type: "Convolution"
  bottom: "pool1"
  top: "conv3"
  convolution_param {
    num_output: 64
    pad: 1
    kernel_size: 3
    stride: 1
    weight_filler {
      type: "gaussian"
      std: 0.0001
    }
    bias_filler {
      type: "constant"
    }
  }
}
layer {
  name: "relu3"
  type: "ReLU"
  bottom: "conv3"
  top: "relu3"
}
layer {
  name: "ip1"
  type: "InnerProduct"
  bottom: "relu3"
  top: "ip1"
  inner_product_param {
    num_output: 64
    weight_filler {
      type: "gaussian"
      std: 0.1
    }
    bias_filler {
      type: "constant"
    }
  }
}
layer {
  name: "relu4"
  type: "ReLU"
  bottom: "ip1"
  top: "relu4"
}
layer {
  name: "ip2"
  type: "InnerProduct"
  bottom: "relu4"
  top: "ip2"
  inner_product_param {
    num_output: 32
    weight_filler {
      type: "gaussian"
      std: 0.1
    }
    bias_filler {
      type: "constant"
    }
  }
}
layer {
  name: "relu5"
  type: "ReLU"
  bottom: "ip2"
  top: "relu5"
}
layer {
  name: "ip3"
  type: "InnerProduct"
  bottom: "relu5"
  top: "ip3"
  inner_product_param {
    num_output: 10
    weight_filler {
      type: "gaussian"
      std: 0.1
    }
    bias_filler {
      type: "constant"
    }
  }
}
layer {
  name: "accuracy"
  type: "Accuracy"
  bottom: "ip3"
  bottom: "label"
  top: "accuracy"
  include {
    phase: TEST
  }
}
layer {
  name: "loss"
  type: "SoftmaxWithLoss"
  bottom: "ip3"
  bottom: "label"
  top: "loss"
}
I0111 13:12:46.587677 32479 layer_factory.hpp:74] Creating layer cifar
I0111 13:12:46.587683 32479 net.cpp:76] Creating Layer cifar
I0111 13:12:46.587687 32479 net.cpp:334] cifar -> data
I0111 13:12:46.587693 32479 net.cpp:334] cifar -> label
I0111 13:12:46.587697 32479 net.cpp:105] Setting up cifar
I0111 13:12:46.587734 32479 db.cpp:34] Opened lmdb net/test-db
I0111 13:12:46.587754 32479 data_layer.cpp:67] output data size: 100,3,32,32
I0111 13:12:46.587759 32479 data_transformer.cpp:22] Loading mean file from: net/mean.binaryproto
I0111 13:12:46.588209 32479 net.cpp:112] Top shape: 100 3 32 32 (307200)
I0111 13:12:46.588215 32479 net.cpp:112] Top shape: 100 1 1 1 (100)
I0111 13:12:46.588224 32479 layer_factory.hpp:74] Creating layer label_cifar_1_split
I0111 13:12:46.588229 32479 net.cpp:76] Creating Layer label_cifar_1_split
I0111 13:12:46.588232 32479 net.cpp:372] label_cifar_1_split <- label
I0111 13:12:46.588237 32479 net.cpp:334] label_cifar_1_split -> label_cifar_1_split_0
I0111 13:12:46.588241 32479 net.cpp:334] label_cifar_1_split -> label_cifar_1_split_1
I0111 13:12:46.588245 32479 net.cpp:105] Setting up label_cifar_1_split
I0111 13:12:46.588249 32479 net.cpp:112] Top shape: 100 1 1 1 (100)
I0111 13:12:46.588253 32479 net.cpp:112] Top shape: 100 1 1 1 (100)
I0111 13:12:46.588256 32479 layer_factory.hpp:74] Creating layer conv1
I0111 13:12:46.588260 32479 net.cpp:76] Creating Layer conv1
I0111 13:12:46.588263 32479 net.cpp:372] conv1 <- data
I0111 13:12:46.588268 32479 net.cpp:334] conv1 -> conv1
I0111 13:12:46.588273 32479 net.cpp:105] Setting up conv1
I0111 13:12:46.588305 32479 net.cpp:112] Top shape: 100 32 32 32 (3276800)
I0111 13:12:46.588312 32479 layer_factory.hpp:74] Creating layer relu1
I0111 13:12:46.588315 32479 net.cpp:76] Creating Layer relu1
I0111 13:12:46.588317 32479 net.cpp:372] relu1 <- conv1
I0111 13:12:46.588321 32479 net.cpp:334] relu1 -> relu1
I0111 13:12:46.588325 32479 net.cpp:105] Setting up relu1
I0111 13:12:46.588328 32479 net.cpp:112] Top shape: 100 32 32 32 (3276800)
I0111 13:12:46.588330 32479 layer_factory.hpp:74] Creating layer pool1
I0111 13:12:46.588335 32479 net.cpp:76] Creating Layer pool1
I0111 13:12:46.588336 32479 net.cpp:372] pool1 <- relu1
I0111 13:12:46.588340 32479 net.cpp:334] pool1 -> pool1
I0111 13:12:46.588346 32479 net.cpp:105] Setting up pool1
I0111 13:12:46.588349 32479 net.cpp:112] Top shape: 100 32 31 31 (3075200)
I0111 13:12:46.588351 32479 layer_factory.hpp:74] Creating layer conv3
I0111 13:12:46.588356 32479 net.cpp:76] Creating Layer conv3
I0111 13:12:46.588357 32479 net.cpp:372] conv3 <- pool1
I0111 13:12:46.588362 32479 net.cpp:334] conv3 -> conv3
I0111 13:12:46.588366 32479 net.cpp:105] Setting up conv3
I0111 13:12:46.588829 32479 net.cpp:112] Top shape: 100 64 31 31 (6150400)
I0111 13:12:46.588835 32479 layer_factory.hpp:74] Creating layer relu3
I0111 13:12:46.588838 32479 net.cpp:76] Creating Layer relu3
I0111 13:12:46.588841 32479 net.cpp:372] relu3 <- conv3
I0111 13:12:46.588845 32479 net.cpp:334] relu3 -> relu3
I0111 13:12:46.588850 32479 net.cpp:105] Setting up relu3
I0111 13:12:46.588852 32479 net.cpp:112] Top shape: 100 64 31 31 (6150400)
I0111 13:12:46.588855 32479 layer_factory.hpp:74] Creating layer ip1
I0111 13:12:46.588858 32479 net.cpp:76] Creating Layer ip1
I0111 13:12:46.588860 32479 net.cpp:372] ip1 <- relu3
I0111 13:12:46.588866 32479 net.cpp:334] ip1 -> ip1
I0111 13:12:46.588871 32479 net.cpp:105] Setting up ip1
I0111 13:12:46.682776 32479 net.cpp:112] Top shape: 100 64 1 1 (6400)
I0111 13:12:46.682808 32479 layer_factory.hpp:74] Creating layer relu4
I0111 13:12:46.682818 32479 net.cpp:76] Creating Layer relu4
I0111 13:12:46.682822 32479 net.cpp:372] relu4 <- ip1
I0111 13:12:46.682828 32479 net.cpp:334] relu4 -> relu4
I0111 13:12:46.682834 32479 net.cpp:105] Setting up relu4
I0111 13:12:46.682837 32479 net.cpp:112] Top shape: 100 64 1 1 (6400)
I0111 13:12:46.682840 32479 layer_factory.hpp:74] Creating layer ip2
I0111 13:12:46.682847 32479 net.cpp:76] Creating Layer ip2
I0111 13:12:46.682852 32479 net.cpp:372] ip2 <- relu4
I0111 13:12:46.682855 32479 net.cpp:334] ip2 -> ip2
I0111 13:12:46.682860 32479 net.cpp:105] Setting up ip2
I0111 13:12:46.682920 32479 net.cpp:112] Top shape: 100 32 1 1 (3200)
I0111 13:12:46.682925 32479 layer_factory.hpp:74] Creating layer relu5
I0111 13:12:46.682929 32479 net.cpp:76] Creating Layer relu5
I0111 13:12:46.682931 32479 net.cpp:372] relu5 <- ip2
I0111 13:12:46.682934 32479 net.cpp:334] relu5 -> relu5
I0111 13:12:46.682937 32479 net.cpp:105] Setting up relu5
I0111 13:12:46.682940 32479 net.cpp:112] Top shape: 100 32 1 1 (3200)
I0111 13:12:46.682942 32479 layer_factory.hpp:74] Creating layer ip3
I0111 13:12:46.682947 32479 net.cpp:76] Creating Layer ip3
I0111 13:12:46.682950 32479 net.cpp:372] ip3 <- relu5
I0111 13:12:46.682965 32479 net.cpp:334] ip3 -> ip3
I0111 13:12:46.682970 32479 net.cpp:105] Setting up ip3
I0111 13:12:46.682983 32479 net.cpp:112] Top shape: 100 10 1 1 (1000)
I0111 13:12:46.682988 32479 layer_factory.hpp:74] Creating layer ip3_ip3_0_split
I0111 13:12:46.682994 32479 net.cpp:76] Creating Layer ip3_ip3_0_split
I0111 13:12:46.682998 32479 net.cpp:372] ip3_ip3_0_split <- ip3
I0111 13:12:46.683001 32479 net.cpp:334] ip3_ip3_0_split -> ip3_ip3_0_split_0
I0111 13:12:46.683006 32479 net.cpp:334] ip3_ip3_0_split -> ip3_ip3_0_split_1
I0111 13:12:46.683009 32479 net.cpp:105] Setting up ip3_ip3_0_split
I0111 13:12:46.683012 32479 net.cpp:112] Top shape: 100 10 1 1 (1000)
I0111 13:12:46.683014 32479 net.cpp:112] Top shape: 100 10 1 1 (1000)
I0111 13:12:46.683017 32479 layer_factory.hpp:74] Creating layer accuracy
I0111 13:12:46.683028 32479 net.cpp:76] Creating Layer accuracy
I0111 13:12:46.683030 32479 net.cpp:372] accuracy <- ip3_ip3_0_split_0
I0111 13:12:46.683033 32479 net.cpp:372] accuracy <- label_cifar_1_split_0
I0111 13:12:46.683037 32479 net.cpp:334] accuracy -> accuracy
I0111 13:12:46.683043 32479 net.cpp:105] Setting up accuracy
I0111 13:12:46.683048 32479 net.cpp:112] Top shape: 1 1 1 1 (1)
I0111 13:12:46.683049 32479 layer_factory.hpp:74] Creating layer loss
I0111 13:12:46.683054 32479 net.cpp:76] Creating Layer loss
I0111 13:12:46.683056 32479 net.cpp:372] loss <- ip3_ip3_0_split_1
I0111 13:12:46.683059 32479 net.cpp:372] loss <- label_cifar_1_split_1
I0111 13:12:46.683063 32479 net.cpp:334] loss -> loss
I0111 13:12:46.683066 32479 net.cpp:105] Setting up loss
I0111 13:12:46.683070 32479 layer_factory.hpp:74] Creating layer loss
I0111 13:12:46.683081 32479 net.cpp:112] Top shape: 1 1 1 1 (1)
I0111 13:12:46.683085 32479 net.cpp:118]     with loss weight 1
I0111 13:12:46.683094 32479 net.cpp:163] loss needs backward computation.
I0111 13:12:46.683096 32479 net.cpp:165] accuracy does not need backward computation.
I0111 13:12:46.683099 32479 net.cpp:163] ip3_ip3_0_split needs backward computation.
I0111 13:12:46.683100 32479 net.cpp:163] ip3 needs backward computation.
I0111 13:12:46.683102 32479 net.cpp:163] relu5 needs backward computation.
…
